DeepSpeechPrior/model-VAE-best-scale=gamma-D=16.npz (npz, 527200 bytes, 14 tensors)

bn_dec/gamma f4 [128]
000000 54 75 18 40 02 46 04 be d9 47 34 3f 22 41 84 40
       2.3821611 -0.12917331 0.7042213 4.132951
000010 32 3b c7 3e 51 dc be 3f 18 c6 85 3e 6c f1 f5 41
       0.3891235 1.4910985 0.26127696 30.742882
000020 90 75 7d 3f e5 9e ba 3f ff c3 fd 3f f2 ac 89 40
       0.9900751 1.4579741 1.9825438 4.3023615
000030 a6 f9 42 40 d5 90 ca 3e f6 a5 b1 3f ed 8e 3f 3f
       3.0464873 0.39563623 1.3878772 0.7482746
000040 a3 db 53 40 f1 1e a1 3f 4d 5d 2d 40 10 fe df 3e
       3.3102806 1.2587568 2.7088196 0.43748522
000050 3d 86 6c 3f d5 99 18 40 13 53 a2 3e 89 cf f1 3f
       0.9239233 2.3843892 0.31704006 1.889146
000060 fd 37 43 3f 94 cf 39 be 48 02 40 3f ab 6f 9c 3e
       0.76257306 -0.18145591 0.7500348 0.30553946
000070 21 3e 16 3e 79 cd b7 40 0d 14 eb 3e ae 36 a4 3f
       0.14672138 5.743832 0.45913735 1.2829187
000080 4d 2b 52 3f 45 2d fe 3e 29 6d 1d 3f 5c 76 34 3f
       0.8209732 0.49643913 0.6149469 0.704931
000090 ec 39 af 3d 11 e5 48 3f 92 31 37 3e 76 ce b9 3e
       0.085559696 0.7847453 0.17890003 0.3629033
0000a0 cd 27 87 3e 09 71 00 40 f0 b5 94 3e 6e 15 64 40
       0.26397553 2.006899 0.29045057 3.563808
0000b0 e9 76 9f 3e df b8 83 3f 3e 41 73 3e 21 01 2c 3f
       0.3114541 1.0290793 0.23755357 0.6718922
0000c0 d0 df bb 40 65 b3 26 3f 47 88 6a 40 ed c0 8c 3f
       5.871071 0.65117484 3.6645677 1.0996376
0000d0 2c 2d 3f 40 7f 7a 80 40 6b 5d 1a 3f cf ca be 3d
       2.987132 4.014953 0.60298795 0.093160264
0000e0 7d af 2b 40 60 d5 21 3f a6 5d bf 3e 44 36 88 3f
       2.682586 0.6321621 0.37376136 1.064156
0000f0 c8 6e 47 3f 42 3e 2c 3f c7 55 91 3f 8a 46 63 3f
       0.77903414 0.672825 1.1354302 0.8877951
000100 2a 8f d6 3e f5 f0 ee 3f 4c 6c b9 bd e4 ab b4 3e
       0.419061 1.8667284 -0.09053859 0.35287392
000110 94 ce 8a 40 dc 33 59 3f 5b 1f 2b 3f 7d 72 c9 3e
       4.337717 0.84844756 0.6684472 0.3934516
000120 f9 90 35 3f dc 8e 5c 3f 74 cd f7 3e 18 72 b7 3f
       0.70924336 0.86155486 0.48398936 1.4331694
000130 01 d6 94 3f a1 c6 ad 3f 6a 89 4c 40 01 42 bf 40
       1.1627809 1.3576242 3.195887 5.976807
000140 40 a9 46 3f b2 f2 49 40 d0 f3 10 3f 2f b2 38 3f
       0.77602005 3.155438 0.5662203 0.72146887
000150 44 e0 71 3d 57 31 2d 40 d3 ab 3a 40 86 da 29 3f
       0.059051767 2.7061365 2.9167373 0.66349065
000160 65 ac 73 40 d9 49 05 41 f3 7a 41 41 2c 99 6a 3f
       3.8073971 8.330529 12.092517 0.9163997
000170 a8 22 2e 3f e5 a4 4a 3e b6 46 08 3e 39 bf e2 3d
       0.6802163 0.19789465 0.13308224 0.11071629
000180 52 7c 8f 3f f0 96 b5 3f a0 84 e3 3f 97 fc 37 3f
       1.1209815 1.4186687 1.7774849 0.71869797
000190 e0 96 b8 41 7e d6 66 40 42 e4 a6 3f 46 f2 bb 3e
       23.07367 3.6068416 1.3038409 0.36708277
0001a0 85 4f b5 3e da 22 24 40 31 20 c1 3e 7b 35 4c 41
       0.3541223 2.5646272 0.37719873 12.763057
0001b0 70 ae 74 3e be 8d 4e 3f f1 99 53 3e ac c8 b6 3e
       0.23894668 0.8068503 0.20664193 0.35699975
0001c0 b7 23 8f 3f f3 24 3e 3f 53 c6 35 3e a2 bf c0 3f
       1.1182774 0.7427513 0.17751436 1.5058482
0001d0 65 b9 45 3e 49 0c a4 3e dd 1f 08 be b0 bb c2 3d
       0.19309004 0.32040623 -0.13293405 0.09508455
0001e0 d6 1d 10 be 81 b5 1e 3f a0 ed 86 3f 6a 56 59 40
       -0.14073882 0.61995703 1.0541267 3.3958993
0001f0 14 a3 50 41 d1 37 7a 3f c5 35 cc 3e bd a7 ee 3d
       13.039814 0.9774142 0.39884773 0.11653087

bn_dec/beta f4 [128]
000000 e4 12 54 40 46 7c 8e 3e fa 44 b6 3f a6 ee 46 c0
       3.313653 0.27829188 1.42398 -3.108316
000010 8e b5 74 bf 9a 02 2e c0 dd 61 2a 3d d5 1c e1 3f
       -0.9558953 -2.7189088 0.041597236 1.7586924
000020 4a 11 2d bf 72 99 b5 3f 74 fc 03 40 77 0a 25 c0
       -0.67604506 1.4187453 2.0622835 -2.5787637
000030 ca de 5a bf 1c 49 ac bf 00 da 7a bf 35 07 b2 3f
       -0.854962 -1.3459811 -0.9798889 1.390845
000040 42 23 40 c0 e9 fe 16 40 fa d5 2f c0 52 86 33 bf
       -3.002152 2.3593085 -2.747435 -0.7012683
000050 f4 77 51 bf 30 70 10 c0 01 b7 45 bf 3d ad fa 3f
       -0.8182366 -2.2568474 -0.77232367 1.9584118
000060 e9 44 95 bf b5 51 c9 be 64 e5 8f 3f 5d 26 82 bf
       -1.1661655 -0.3932015 1.124188 -1.0167958
000070 83 e9 cd 3e 4f 50 84 40 64 2e c4 bf af db 5c 3f
       0.40217218 4.1348033 -1.5326657 0.8627271
000080 8e f3 0e 3f a8 61 1c bf 03 e2 62 bc e3 de a3 bf
       0.55840385 -0.6108651 -0.013847831 -1.2802395
000090 63 74 d5 be 6a 6e 9c bf 95 51 0f bf 78 3e a9 3e
       -0.4169036 -1.2221196 -0.5598386 0.33055472
0000a0 93 c9 50 3f 5e ea 1b 40 84 8c 19 3f 2a d5 38 c0
       0.8155758 2.4361796 0.59980035 -2.8880105
0000b0 05 5c 89 3e 27 75 ce bf a1 01 bc 3f b7 20 ba be
       0.26828018 -1.6129502 1.4687997 -0.36353084
0000c0 7e eb a0 40 2e 76 0b 3e a6 76 51 40 3c 26 c0 be
       5.0287466 0.136193 3.2728667 -0.3752917
0000d0 85 54 6c c0 bb 14 56 40 2e 9c 8c bf cc 8f 20 bd
       -3.6926587 3.3450153 -1.0985162 -0.039199635
0000e0 0a 79 10 40 9f ed c1 3d 65 b8 b7 be 13 bf 35 bf
       2.2573876 0.09469151 -0.3588287 -0.7099468
0000f0 b3 dc 81 3e be 8f 80 be bb 1c e2 3f 38 d5 9d bf
       0.25363693 -0.25109667 1.7665018 -1.2330694
000100 ae c9 ef be 18 3a 27 c0 b8 f7 f9 3e 3d d1 d0 bd
       -0.46833557 -2.6129208 0.48821807 -0.10196159
000110 a9 a1 72 c0 32 33 3e 3f 68 a0 99 3f ef aa a5 bf
       -3.791117 0.7429687 1.2002077 -1.294279
000120 3b 58 b5 be 59 03 04 c0 cd ad d3 3d 36 bd 5c be
       -0.35418877 -2.0627043 0.10335884 -0.21556553
000130 47 6f 93 3f 27 5c ce bf 2b 36 8e 40 66 7b 07 40
       1.1518334 -1.6121873 4.4441123 2.1169066
000140 58 fb 53 3f 36 4e 45 c0 fa 8f 7b 3f 39 6d 39 bf
       0.82805395 -3.0828986 0.98266566 -0.72432286
000150 9e 18 11 3b b7 f6 1b 40 98 6b 82 bf 80 3d 46 bf
       0.0022139917 2.4369333 -1.0189085 -0.7743759
000160 c4 87 8a 40 d8 00 4c c0 8c ca 39 c0 f7 f8 87 3f
       4.329073 -3.1875515 -2.9029875 1.0622853
000170 fc ed c2 be d0 27 0c 3e 71 8a 39 3e a1 60 5a 3e
       -0.38072193 0.13687062 0.18119217 0.21325924
000180 8f a7 0d be 1e 75 e1 bf fa ea 96 3f a3 e1 94 3f
       -0.1383345 -1.7613866 1.1790459 1.1631359
000190 d1 27 03 3e 1c d6 20 c0 30 61 1e 3f 21 72 0c bf
       0.12808158 -2.5130682 0.61867046 -0.54861647
0001a0 02 0b 41 3f c9 ed 91 c0 37 30 5f bf 39 0c 06 40
       0.7540742 -4.5602765 -0.87182945 2.094496
0001b0 b6 e3 de 3d ee 8e 15 3f 2a 5f 72 3f 0c 23 c2 3d
       0.10883276 0.5842122 0.9467646 0.09479341
0001c0 54 6f 80 be e3 67 66 3e 87 f6 7a be f9 63 a5 3f
       -0.25084937 0.22500567 -0.24508105 1.2921134
0001d0 25 9f 32 bd 24 31 8d 3f d9 3c a3 3e 2d 6b 9b be
       -0.043608803 1.1030622 0.3188236 -0.30355206
0001e0 3a 0b bc be c4 d1 99 bd 58 c2 b2 3f 14 04 4a 40
       -0.36727315 -0.07510713 1.3965559 3.156499
0001f0 3f 48 20 40 b3 f9 a8 3e 64 22 97 bf d5 c7 63 3d
       2.5044096 0.33003005 -1.180737 0.055610497

bn_dec/avg_mean f4 [128]
000000 a8 82 11 c0 cc d8 1d 40 4b 58 1d c0 c4 47 67 bf
       -2.2735996 2.4663572 -2.458514 -0.9034388
000010 c7 25 6d 3e ac d1 cc 3f 3a 24 03 40 77 8f 2a c0
       0.23158942 1.6001487 2.049086 -2.6650064
000020 d4 78 d3 3f 53 d6 7b bf 06 b7 9d bf 7a a9 6a 3f
       1.6521249 -0.9837391 -1.2321479 0.9166485
000030 5a d6 a6 bf 63 5e 17 40 41 02 6b 40 1b c3 50 bf
       -1.3034165 2.365136 3.6720126 -0.8154771
000040 bd fa b2 bf 51 c4 1b bf d9 83 cd 3e a3 80 08 40
       -1.3982769 -0.6084643 0.40139654 2.1328514
000050 39 cf 0d 3d 01 4e b4 bf 2a b2 d8 3f 4b ab 5c 3e
       0.03462145 -1.4086305 1.6929371 0.21549718
000060 06 34 4a 3f fd 54 d7 bf 38 b8 d0 3f 6f 97 14 3f
       0.7898563 -1.6822811 1.6306219 0.5804357
000070 9b ca 09 c0 ee e8 a7 bf e2 11 d9 3f b1 07 90 be
       -2.152991 -1.311796 1.6958582 -0.28130868
000080 a3 ab 57 3f 65 13 aa 3f a4 a8 3f 3f 7c b6 a3 bf
       0.8424627 1.3287169 0.748667 -1.2790065
000090 c5 96 d8 3f f7 29 ee 3e c5 f5 be 3f fb 97 c4 bf
       1.6921011 0.46516392 1.4918753 -1.5358881
0000a0 06 ed 0c c0 e7 24 3b 3f 63 56 17 c0 4e 51 a4 bf
       -2.2019668 0.73103184 -2.3646476 -1.2837312
0000b0 dc 30 ae bf 91 a7 09 3f d4 f0 c2 bf f3 b3 26 bf
       -1.3608661 0.5377131 -1.5229745 -0.6511833
0000c0 fe 2d c0 bf 84 03 c4 3e 7a ff b1 3f 2e b4 d5 bf
       -1.5014036 0.38283932 1.390609 -1.6695611
0000d0 ab bd cf 3f fb c0 e4 3e 08 19 00 40 61 88 e1 3e
       1.6229757 0.44678482 2.0015278 0.4404936
0000e0 5e e7 8f 3f 73 0f 8f bf 35 e6 fd 3f 23 d5 79 bf
       1.1242483 -1.117659 1.9835879 -0.97590846
0000f0 1e ef bf bf 84 71 11 3f 6b 8d b4 3f 70 21 9b 3e
       -1.4994848 0.56813836 1.4105657 0.30298948
000100 cb 1c 0b 40 bc 59 a0 3f b3 e7 4b bf ce e0 b2 3f
       2.1736324 1.2527385 -0.7965042 1.3974855
000110 99 28 e2 bf 7e 60 6e bf b4 6f f8 bf 6f e2 9d 3f
       -1.766864 -0.93115985 -1.9409089 1.2334727
000120 81 ce 55 3f a2 73 15 3f 10 d3 9f bf d6 f4 56 c0
       0.83518225 0.58379567 -1.2486286 -3.3586936
000130 8b 8d 56 3f 10 0d bc 3f 4d f9 97 3c d8 f0 0f c0
       0.8380973 1.4691486 0.018551493 -2.249075
000140 f2 c6 be bf f8 3d ce be de 0d cf bf da cd a3 3f
       -1.4904463 -0.40281653 -1.6176107 1.2797196
000150 27 b0 c7 3f 6c cc e9 3f 34 38 cc 3f 56 ea 96 3f
       1.5600632 1.826551 1.5954652 1.1790264
000160 05 84 9d bf bd 7a b2 bf 63 17 0a 3f 2a 5e 70 3e
       -1.2305914 -1.3943707 0.53941935 0.2347342
000170 25 d8 a4 bc 04 b3 b2 bf 31 fb ba bf 54 a8 02 c0
       -0.020122597 -1.3960881 -1.4607908 -2.041524
000180 9b a3 84 3f 41 81 c1 3f 7e 45 e8 bf 32 b6 56 c0
       1.0362428 1.511757 -1.8146207 -3.3548703
000190 c0 ff 52 c0 e3 51 cd 3f 7d 8b 04 3f 9c b0 06 40
       -3.2968597 1.6040615 0.5177534 2.1045294
0001a0 00 2d 41 bf cf 51 0e 40 c1 5d fa 3f 5e a5 56 bf
       -0.7545929 2.2237432 1.9559861 -0.8384608
0001b0 3a a5 df bf 98 24 29 3e b5 ab 00 c0 d2 bf be bf
       -1.7472298 0.16517866 -2.0104802 -1.4902289
0001c0 70 d9 a9 3f 9f 0d 26 40 c8 a3 df 3f fe 88 07 c0
       1.3269482 2.5945814 1.7471857 -2.1177363
0001d0 42 6e 05 c0 bd e7 ef bf 8f 55 5d 3f 80 8d 0d 40
       -2.0848546 -1.8742596 0.8645868 2.2117615
0001e0 74 4b 97 bf 53 2c 05 40 6e ea c2 bf 38 6e b2 3e
       -1.1819901 2.0808303 -1.5227792 0.34849715
0001f0 72 9f 6f c0 06 22 9e 3e 95 72 32 40 24 62 c7 bf
       -3.7441068 0.30885333 2.7882435 -1.5576825

bn_dec/avg_var f4 [128]
000000 58 fd 8d 41 35 f1 5c 40 f9 cb bb 40 ac 9b f9 40
       17.748703 3.452222 5.868649 7.800253
000010 c5 0a 35 40 10 2f f9 3f 75 b3 2b 40 e3 64 cb 40
       2.8287823 1.9467487 2.6828282 6.3560653
000020 94 60 e5 40 1d 7d a5 40 bb 79 88 40 d7 89 a7 40
       7.1680393 5.1715226 4.2648597 5.235576
000030 e6 1f 8d 40 7b 1a bc 40 9d da 13 41 fb 61 d3 40
       4.410144 5.8782325 9.240872 6.6057105
000040 cc bd 1c 41 f3 54 b9 40 d2 75 e9 40 00 9a 77 40
       9.796337 5.79162 7.2956324 3.8687744
000050 ec 5d fe 40 d6 6a a5 40 e7 83 f0 40 e4 11 b0 40
       7.948965 5.1692915 7.5161014 5.502184
000060 16 3a a2 40 ef 0b 9a 40 74 85 95 40 03 74 78 40
       5.0695906 4.8139567 4.6725407 3.8820808
000070 d2 2f 9a 40 ef 43 fb 40 a5 ed 7c 40 96 f0 a3 40
       4.8183374 7.8520427 3.9520047 5.1231184
000080 2f a7 ba 40 7c 96 94 40 e4 86 c1 40 43 b9 11 40
       5.832908 4.6433697 6.047716 2.2769325
000090 f1 52 9c 40 6c ee b3 40 ea 29 89 40 64 09 af 40
       4.8851247 5.622854 4.2863665 5.4698963
0000a0 53 a4 a4 40 77 50 39 41 57 b4 ec 40 10 4f 81 41
       5.145059 11.582145 7.397014 16.163605
0000b0 34 30 7a 40 bd 80 a3 40 0c bd 97 40 5c e3 e7 40
       3.909192 5.109465 4.741827 7.246504
0000c0 3c 19 a2 40 31 b9 b0 40 8f 62 35 41 97 5f dd 40
       5.0655804 5.5226064 11.336562 6.9179187
0000d0 47 b7 10 41 98 8a 03 41 93 0b c0 40 d5 61 91 40
       9.044745 8.221336 6.001413 4.5431924
0000e0 5f e6 d7 40 91 d7 df 40 79 d8 97 40 4d 5a a9 40
       6.7468715 6.9950643 4.745175 5.292273
0000f0 d9 54 f4 40 ab ea d7 40 05 50 75 40 7e b9 8c 40
       7.6353574 6.747396 3.833009 4.397643
000100 06 06 92 40 97 a5 b3 40 a0 a1 01 40 c8 06 04 41
       4.5632353 5.6139636 2.0254898 8.251656
000110 4a eb 8e 41 23 f2 a0 40 54 38 a1 40 f0 6f bc 40
       17.864887 5.0295577 5.038126 5.8886642
000120 a1 bb c7 40 bc 06 9d 40 1f 88 04 41 99 19 c7 41
       6.241654 4.907072 8.283233 24.887499
000130 b0 68 7f 40 d7 0b b8 40 0b c9 fd 3f cb c1 0d 41
       3.9907646 5.7514453 1.9826978 8.859813
000140 56 46 a6 40 44 b0 48 41 ce 99 86 40 da 53 be 40
       5.196086 12.543034 4.206275 5.947736
000150 8a cf ba 40 8b bd da 40 c2 73 67 40 80 77 a8 40
       5.8378344 6.8356376 3.6164403 5.2645874
000160 b7 1f 1b 40 90 88 be 40 25 dd 86 40 1c 7c b4 40
       2.4238107 5.95417 4.214495 5.64015
000170 45 cd e9 40 d2 cc fa 40 b4 72 de 40 da 56 2d 40
       7.3063073 7.8375025 6.951502 2.708426
000180 15 72 70 40 e5 b4 4a 40 90 13 02 40 23 73 44 41
       3.756963 3.167291 2.032444 12.27811
000190 c1 20 8a 40 2d f4 2f 41 88 bc 2b 41 ef 05 07 41
       4.3164983 10.997113 10.733528 8.438949
0001a0 1b 24 51 40 7d 37 87 41 df ae 4a 41 4f 8d 57 40
       3.2678287 16.902094 12.667693 3.3679998
0001b0 fd 34 9b 40 e4 d8 58 41 0b 99 86 40 d0 e5 de 40
       4.8502183 13.552952 4.206182 6.9655533
0001c0 8e aa 4a 40 78 84 de 40 3c 7e 56 40 83 7e 24 41
       3.1666598 6.9536705 3.3514547 10.280887
0001d0 d0 32 e1 40 5a c9 85 40 94 27 91 40 19 4c da 40
       7.0374527 4.180829 4.5360813 6.8217893
0001e0 f3 fb 9b 40 09 7f e9 40 0b 8b 41 41 a7 95 75 40
       4.8745055 7.296757 12.096446 3.837259
0001f0 12 b8 a1 40 e9 cc 27 40 68 7c ed 40 99 3a bd 40
       5.0537195 2.6218817 7.4214363 5.913403

linear_enc/b f4 [128]
000000 30 dd c3 bf ef 40 ad be bb 13 a2 3f 40 d2 a5 3f
       -1.5301876 -0.33838603 1.2662271 1.2954788
000010 7a a3 8e 3f 46 e4 86 bf 19 42 87 bf 2d de 89 3f
       1.1143639 -1.0538414 -1.0567046 1.0770928
000020 15 87 93 3f 88 ff 9c bf ca 5d 6d 3f fc cb 98 bf
       1.1525599 -1.2265482 0.92721236 -1.1937251
000030 32 77 68 bf 81 c2 a8 be 12 1a af 3f 45 f4 48 bf
       -0.9080688 -0.32960895 1.3679831 -0.78497726
000040 6b a9 93 3f f8 f7 8f 3f 5c 7a 8e bf cb c5 98 bf
       1.1536077 1.1247549 -1.1131091 -1.1935362
000050 67 d3 cb 3f 32 c5 90 3f d4 c8 b6 3f 01 c0 7f 3f
       1.592389 1.1310179 1.4280038 0.9990235
000060 a6 e8 43 3f 7a 27 60 3e 72 90 13 3f 89 70 8c 3f
       0.7652687 0.21890059 0.5764228 1.0971843
000070 d3 62 9a bf df d9 a1 be 17 15 47 bf f0 c0 70 bf
       -1.2061409 -0.31611535 -0.77766556 -0.940444
000080 0e 03 7c 3f 43 c3 42 be c3 93 c1 bf 86 40 6f 3f
       0.9844216 -0.19019799 -1.5123218 0.9345783
000090 85 89 73 bf 5d 93 5e 3f d7 5f 59 bf de 61 b1 bf
       -0.95131713 0.8694361 -0.84911865 -1.3857992
0000a0 27 66 f2 3f 5f 88 13 3e cb 9c b1 bf bb 52 0f c0
       1.8937424 0.1440749 -1.3875974 -2.2394245
0000b0 f9 49 91 bf 3e 4a 95 3f 81 a0 89 bf bf 06 40 3f
       -1.13507 1.1663282 -1.0752107 0.75010294
0000c0 89 87 68 3e e0 ae 52 bf 50 9a 2e 40 bd ad 95 3f
       0.22707953 -0.8229809 2.7281685 1.1693646
0000d0 2c d7 90 be c2 e6 24 40 6a e7 8b 3f 2f e8 c1 bf
       -0.28289163 2.5765843 1.0929997 -1.5148982
0000e0 72 e0 52 3f 9a 75 7e 3f 17 7a a8 3f 6d ef 76 3f
       0.82373726 0.99398196 1.3162259 0.96459085
0000f0 0f 8a 88 3f 19 6a 5a bf ab d4 28 3f 44 06 92 3f
       1.0667132 -0.8531814 0.65949506 1.1408162
000100 79 df 99 3f db 0b 07 3f 37 d1 ca 3f 91 0f 73 3f
       1.2021323 0.52752465 1.5845097 0.9494563
000110 4b d9 5d bf fb 4c b4 3f af 09 5e bf e2 73 aa bf
       -0.8665969 1.4085993 -0.86733526 -1.3316615
000120 bd e0 8e 3f 2e 94 8e 3f d3 88 d3 bf 97 25 cf bf
       1.1162335 1.1138971 -1.652613 -1.6183347
000130 35 d0 fe bf 87 03 69 bf 3f 7b cd bf 9f e2 72 bf
       -1.990729 -0.9102101 -1.6053237 -0.94877046
000140 58 15 bb 3f fa 2a d2 bf 7a f7 b0 3f d3 3d 49 3e
       1.4615889 -1.6419365 1.3825524 0.1965249
000150 74 94 bc bf f0 a9 16 40 b2 9a a4 3f 92 4c 61 bf
       -1.4732804 2.3541222 1.2859709 -0.8800746
000160 0e 6a 96 bf 5a cc 2a 3f dc e7 df bf 2e bd 9b 3f
       -1.1751115 0.66718066 -1.7492633 1.2167108
000170 da be 7c 3f dc cb ad 3f 0f 24 15 bf f3 c8 64 3f
       0.98728716 1.3577838 -0.58258146 0.89369124
000180 dc a0 fe bf 40 6d f8 bf bc 56 e6 3f 8d 73 09 c0
       -1.989284 -1.940834 1.7995219 -2.1476777
000190 58 b4 bb bf 37 07 73 3f 4c 02 8e bf 65 e9 aa 3f
       -1.4664412 0.94932884 -1.1094451 1.3352476
0001a0 95 17 d4 bf de 20 1e c0 c2 d5 a6 be 9e 44 e6 be
       -1.6569697 -2.470756 -0.3258496 -0.44974226
0001b0 c7 2d 72 bd 7e 9a 2e 3f 5b 26 1b bf a8 56 19 bf
       -0.059125688 0.68204486 -0.606054 -0.5989785
0001c0 00 7d 30 bf b6 a7 9c bf cd f4 ed 3f b9 67 37 be
       -0.68940735 -1.2238681 1.8590332 -0.17910661
0001d0 f3 37 aa be f6 b7 94 3f cd 32 3e 3f 43 27 2f bf
       -0.3324581 1.161864 0.74296266 -0.68419284
0001e0 d7 24 9d 3f cc 0e a2 3f 68 48 24 bf bd f0 e1 be
       1.2276868 1.2660766 -0.64172983 -0.4412898
0001f0 8c 60 02 c0 0e 86 04 bf 8f 7b be bf 4f dd 96 bf
       -2.0371428 -0.5176705 -1.4881457 -1.1786288

linear_enc/W f4 [128, 513]
000000 12 99 55 3e 44 8a 67 3e 18 59 42 be 0f 6b 91 3b
       0.20859173 0.22611338 -0.18979299 0.004437811
000010 ae 3f 67 bf 63 22 02 3f df 07 7d c0 b0 cc 82 bf
       -0.9033154 0.5083372 -3.9536054 -1.0218716
000020 0d 47 1d c0 a3 81 03 c0 47 96 17 3e 68 ae b7 3d
       -2.4574616 -2.0547874 0.1480342 0.08968812
000030 4e 63 e9 3e 3c 22 05 be 2a d6 29 3e 75 68 70 bd
       0.45583576 -0.1300134 0.16585603 -0.058693368
000040 00 f4 20 3e 8c b8 85 bf 33 5b 08 bf 27 0c a9 bf
       0.15718079 -1.0446944 -0.5326416 -1.3206834
000050 f8 76 a8 bc 31 0c 3a bf 1d fd 69 bf a9 dd 2d be
       -0.020564541 -0.7267485 -0.91401845 -0.16979088
000060 99 bb 51 be 43 4f 46 bf 1a c0 31 bd b7 34 1a bf
       -0.20481719 -0.77464694 -0.043396093 -0.60236686
000070 c8 5d 2f 3c 69 22 0c be 36 53 bc bd c4 92 01 bf
       0.010703512 -0.13685001 -0.09195559 -0.5061457
000080 51 70 cf be 41 a5 9b be 0b f7 77 be a8 ee 7d be
       -0.40515378 -0.30399516 -0.24215333 -0.24798071
000090 49 c0 07 3e 51 44 ba be ea 32 7a be 2c 8a 3f be
       0.13256945 -0.36380246 -0.24433485 -0.18705052
0000a0 ae 32 ab be d6 8e 24 bf fd 1e 48 3e 08 4e 53 be
       -0.33437103 -0.6428045 0.19543071 -0.20635235
0000b0 0c de c2 bd 52 f1 49 be 68 98 20 bf 7c 61 ab bf
       -0.09515008 -0.19720963 -0.62732553 -1.3389125
0000c0 6d 14 a2 bf c1 43 0f bf d4 d3 89 be 16 aa d2 bf
       -1.2662483 -0.5596276 -0.26919425 -1.6458156
0000d0 2c ad a0 bf e1 db ac 3a 94 f9 45 bf b6 8a f2 bf
       -1.2552848 0.0013188088 -0.7733395 -1.8948581
0000e0 f0 4d 4f bf 8d 5f 2c 3e 62 fb 26 bf a3 b8 c1 be
       -0.809783 0.16833325 -0.6522733 -0.3783618
0000f0 41 f9 ad be 07 fd 27 c0 54 0b 9b bf 37 59 c6 3d
       -0.33979228 -2.6248186 -1.2112832 0.09684985
000100 22 ae 84 be ba 11 48 bf 17 16 13 bf 59 ad 0a c0
       -0.25914103 -0.7815205 -0.5745558 -2.1668303
000110 ae 43 d3 bf 41 8a e1 be 49 e2 83 be 31 e4 46 3e
       -1.6505029 -0.44050792 -0.2575858 0.19422986
000120 21 74 01 3e 3d 41 93 3c 8c 26 c0 3d ab 60 b0 3d
       0.12641956 0.017975444 0.09382352 0.08612188
000130 25 92 3e 3d 23 fa 2b be 54 8f 65 3e 5f e2 44 3e
       0.046526093 -0.16794638 0.22417957 0.19226979
000140 6b af 09 bc bf c2 aa be 5c 90 4a bf 1f de 6b be
       -0.008403639 -0.33351704 -0.79126525 -0.23033951
000150 ef 06 05 3f fe 83 9a bd b1 23 0d be 65 ee 33 3e
       0.51963705 -0.07544707 -0.13783146 0.17571409
000160 53 b7 a8 3e f1 af b0 3e 0b 77 70 be f7 e7 8c be
       0.32952365 0.34509233 -0.23482911 -0.27520725
000170 84 b6 19 3f 22 fb b2 bd 52 74 ce be 3f 42 23 3f
       0.6004412 -0.08739306 -0.4032312 0.6377296
000180 6a 95 e4 3e 45 44 a6 3e f7 25 98 3e 60 e1 96 be
       0.44645244 0.3247396 0.29716465 -0.29468822
000190 a3 b5 f9 3e f0 e9 dd bd 66 01 84 be a0 42 b0 be
       0.4877139 -0.10835636 -0.25782317 -0.3442583
0001a0 60 d8 d5 be 55 dd f9 be 5d 5e 35 3e af 84 94 be
       -0.41766644 -0.48801675 0.17711778 -0.2900748
0001b0 cd 34 98 be 40 ec c2 bf 66 ee 29 c0 90 b7 11 c0
       -0.29727784 -1.5228348 -2.6551757 -2.2768288
0001c0 6c bd 87 bd 60 3d 04 3e fa df 35 3d aa 65 ca 3e
       -0.06627926 0.12914038 0.044403054 0.3953069
0001d0 6f c5 e5 be 94 bf 2d bd 7a 50 05 3e ad 8a 50 3e
       -0.44877192 -0.04241903 0.1301898 0.203654
0001e0 0f 81 57 bf 6b 13 91 c0 6b af fe c0 b6 f4 e8 c0
       -0.841813 -4.5336204 -7.9589133 -7.279872
0001f0 13 02 b1 c0 0f c8 07 c0 cc e9 06 bd ed 50 ce 3e
       -5.531503 -2.1215856 -0.03293781 0.40296116
000200 ec c4 07 bf 11 2a 8f bf f9 c2 00 bf 81 08 9e 3d
       -0.53034854 -1.1184713 -0.50297505 0.07716466
000210 7f d6 54 bd 00 38 92 bf 94 c4 0a c0 90 12 89 bf
       -0.051962372 -1.142334 -2.1682482 -1.070879
000220 f3 db 4a bd 13 81 b2 be 1d 7b 2d 3e 1c e3 a1 bc
       -0.049526166 -0.348641 0.16941495 -0.019761615
000230 61 dc 9d be 37 49 0e 3d 2a 06 7c be 25 b8 93 3e
       -0.30832198 0.034737792 -0.24611726 0.2885143
000240 d9 cd 18 3f 4c e7 83 be d5 23 97 be 2e d5 4e 3d
       0.596891 -0.25762403 -0.29519525 0.050496273
000250 26 e0 ad 3e 06 42 f3 3e e7 cc ac 3f 48 63 12 bf
       0.33960074 0.4751131 1.3500031 -0.5718274
000260 37 0e 69 bf 7e 80 cf bf 59 bf 73 bf 68 c6 f7 bd
       -0.91037315 -1.6211088 -0.9521385 -0.1209839
000270 f4 85 5a 3e 80 26 a6 3e b2 fe 1c be bf dc 3e 3d
       0.21340162 0.32451248 -0.15331534 0.04659724
000280 ce 14 15 be 2b 07 42 3f ae b0 91 3d aa f1 dd 3e
       -0.14558718 0.7579219 0.07113777 0.43348438
000290 54 ae 53 be 91 79 13 bf e7 fe 8d be eb 62 ac be
       -0.2067197 -0.5760737 -0.27733538 -0.33669218
0002a0 c8 50 72 3e 20 ee 7f be 7f be 68 3d 2c 83 72 be
       0.23663628 -0.24993181 0.056822296 -0.2368285
0002b0 9e a0 c5 3d 91 ea 79 be 87 55 9f 3e 67 41 d7 be
       0.09649776 -0.24405886 0.3111994 -0.42042086
0002c0 c9 4f 14 bf 9e e3 61 3d 32 81 10 bf 0c 3e 9c bf
       -0.5793424 0.055148713 -0.56447136 -1.2206435
0002d0 58 07 7c bf 10 05 ac bd 90 a6 24 be 2b 01 82 bc
       -0.98448706 -0.08399403 -0.16079164 -0.015869698
0002e0 ef 93 4b 3e 13 f9 70 3e 20 a6 af 3d 90 16 7d 3e
       0.19880651 0.23532514 0.08576608 0.24715638
0002f0 97 3b ad be 41 75 b3 bd 6b 74 7e 3e 86 c4 95 be
       -0.33834526 -0.08762599 0.24849097 -0.29251498
000300 a4 72 6a 3d d7 bb 83 3e db 63 00 bd 05 9c a8 3e
       0.057238236 0.25729248 -0.03134523 0.32931533
000310 33 57 7c 3e c2 e6 5d be 52 81 02 be 1d 56 1e 3e
       0.24642639 -0.21670058 -0.12744644 0.15462537
000320 47 d2 ba 3e b6 1d 20 3e c7 42 35 3f f7 6a d3 3e
       0.36488554 0.15636334 0.7080502 0.41292545
000330 e0 10 bd bd f0 0b 05 3e a2 75 12 be bd 36 00 bd
       -0.09231734 0.12992835 -0.14302686 -0.031302202
000340 b5 dc 6b 3e a4 23 02 3f 73 1b 27 3e 07 1c 30 3e
       0.23033412 0.50835633 0.16319065 0.17198192
000350 a3 12 b7 3e 10 46 d1 bd 56 e5 23 be 45 1f 48 3e
       0.35756406 -0.102184415 -0.16005453 0.19543178
000360 9a 72 ac bd 6d 51 f0 bd 68 a2 2a be aa 3e 7b 3e
       -0.08420296 -0.11734281 -0.16663516 0.24535623
000370 8b 3c 09 bf 2c 15 5b 3e 16 e0 0e be 44 bf a9 bd
       -0.53608006 0.21394795 -0.1395267 -0.08288434
000380 91 ec 55 bd bd d4 f2 bd 87 86 e4 3d d7 e3 03 3e
       -0.05222756 -0.11856983 0.111584716 0.12879883
000390 9a b2 56 3e 1b 35 26 3e f0 e2 a1 bd 9b 27 dd bc
       0.20966569 0.16231196 -0.07904613 -0.026996424
0003a0 75 81 0d bd 73 03 3c 3d b2 05 14 3e b9 bf 6c 3e
       -0.034547288 0.045901727 0.14455298 0.23120011
0003b0 36 dd a8 bd 3d 3b 11 3d d2 4f bf be 13 94 54 3d
       -0.08245318 0.035456885 -0.37365586 0.051899027
0003c0 a4 8c 80 3d 2a a9 5f 3d 25 19 2c bd 4a 38 92 bd
       0.06276825 0.054604687 -0.042016167 -0.071396425
0003d0 49 c0 35 3e 10 48 81 3e 91 02 12 bd c6 c0 c7 3d
       0.17749132 0.25250292 -0.03564698 0.097535655
0003e0 43 80 26 3d 78 46 84 3d 04 ca 1b 3e f4 1e 11 3e
       0.040649664 0.06458753 0.15213782 0.14171964
0003f0 11 e1 36 3d c3 71 98 ba 16 09 00 be e7 ab 17 be
       0.044648234 -0.0011630583 -0.12503466 -0.1481167

linear_dec_output/b f4 [513]
000000 cb 74 69 bf 96 7c 49 bf 93 8e 54 bf e1 82 2a bf
       -0.91193837 -0.7870573 -0.8303005 -0.66605955
000010 96 6e 1c bf d0 94 9b bf 3f ff ed bf d9 97 09 c0
       -0.6110624 -1.2154789 -1.859352 -2.149893
000020 46 55 e5 bf 32 8d a3 bf 2f 21 66 bf 1e 71 53 bf
       -1.7916648 -1.2777464 -0.89894384 -0.8259448
000030 50 ff a3 bf a4 1b b2 bf 98 d4 a1 bf ef 28 ad bf
       -1.281229 -1.3914685 -1.2643003 -1.3528117
000040 cf 8e 8c bf 39 b3 80 bf 84 df 7d bf f6 48 c6 bf
       -1.0981082 -1.0054694 -0.9916918 -1.5491016
000050 cb d5 f3 bf 4b c7 e4 bf 09 87 b5 bf 90 1e a1 bf
       -1.904962 -1.7873319 -1.4181834 -1.2587452
000060 b6 7f 99 bf 13 6b 83 bf 23 45 5d bf 3d d6 53 bf
       -1.1992099 -1.0267051 -0.8643362 -0.82748777
000070 8b ed 65 bf 11 90 80 bf 9e 2d 76 bf 5b 4d 3e bf
       -0.89815587 -1.0043966 -0.96163356 -0.74336785
000080 29 af 39 bf 2c 19 34 bf 82 0b 1b bf d6 43 25 bf
       -0.725329 -0.7035091 -0.60564435 -0.64556634
000090 9d 12 73 bf 85 65 8c bf 05 a0 7d bf e1 71 ab bf
       -0.94950277 -1.0968481 -0.99072295 -1.3394128
0000a0 01 34 c1 bf 09 76 bc bf 39 52 bb bf e4 4a b5 bf
       -1.5093995 -1.4723521 -1.4634467 -1.416348
0000b0 57 0c 98 bf fd e7 6f bf de b4 78 bf f4 59 a3 bf
       -1.1878766 -0.9371336 -0.9715098 -1.2761827
0000c0 59 54 cd bf bb 21 d9 bf 3a 56 b5 bf 27 08 82 bf
       -1.6041366 -1.6963419 -1.4166939 -1.0158738
0000d0 14 fd 3a bf 9e f5 6f bf 6f c4 82 bf 8a f5 8a bf
       -0.73042417 -0.9373416 -1.0216197 -1.0856183
0000e0 e4 31 96 bf a8 5d 89 bf ca 7c 71 bf a3 72 72 bf
       -1.1733975 -1.0731707 -0.9433104 -0.9470617
0000f0 6a fc 92 bf 0b a4 91 bf aa 4c a0 bf 60 1c a5 bf
       -1.1483281 -1.1378187 -1.2523396 -1.2899284
000100 03 0b a3 bf a0 38 8f bf bb 0a 81 bf f5 ce 76 bf
       -1.2737736 -1.1189156 -1.00814 -0.9640954
000110 16 aa 4c bf 95 58 48 bf 76 27 8d bf c1 bd b5 bf
       -0.7994703 -0.78260165 -1.1027668 -1.4198533
000120 d1 16 e2 bf d3 c9 fa bf 64 0b f4 bf dd 12 dd bf
       -1.7663213 -1.9592842 -1.9065976 -1.7271382
000130 8e 0c d8 bf c3 a8 df bf 88 51 f9 bf 0e eb fd bf
       -1.6878831 -1.7473377 -1.9478006 -1.9837358
000140 c6 91 d3 bf 49 50 9e bf 6a 61 62 bf 36 57 22 bf
       -1.6528862 -1.2368251 -0.8842989 -0.63414323
000150 40 3d 3f bf 17 76 7e bf f7 5e a1 bf 27 6b cf bf
       -0.74702835 -0.9939894 -1.2607106 -1.6204575
000160 12 42 dc bf 8e 73 df bf 96 41 d1 bf aa 0c bd bf
       -1.7207663 -1.745714 -1.634814 -1.476949
000170 52 11 ad bf 7f c0 94 bf ec 78 80 bf 8e 0f 4c bf
       -1.3520911 -1.1621245 -1.0036902 -0.79711235
000180 31 92 57 bf c3 76 7c bf dc d9 86 bf 33 0d 92 bf
       -0.84207445 -0.98618716 -1.0535235 -1.1410278
000190 2d 28 9c bf 1e 4a 99 bf 6e 44 8b bf cf c0 7d bf
       -1.2199761 -1.1975744 -1.0880258 -0.9912233
0001a0 50 2a 5b bf 27 5e 4e bf 78 be 49 bf 5f 5d 46 bf
       -0.8561144 -0.80612415 -0.7880626 -0.77486223
0001b0 0e 15 61 bf 5f 75 80 bf 94 95 82 bf 78 3f 8c bf
       -0.8792275 -1.0035819 -1.0201898 -1.0956869
0001c0 88 18 8c bf 2e f3 8a bf a3 e0 6c bf 36 a2 57 bf
       -1.0944986 -1.0855463 -0.9253027 -0.8423189
0001d0 3d ee 42 bf e4 2e 3b bf 9f e2 2d bf 7f 93 30 bf
       -0.7614477 -0.73118424 -0.6792392 -0.6897506
0001e0 76 d1 54 bf 18 d6 81 bf 2f e5 89 bf fd 93 8a bf
       -0.8313211 -1.0143461 -1.0773066 -1.0826412
0001f0 54 47 8a bf a4 19 8c bf 3b 89 8a bf d9 da 7d bf
       -1.0803018 -1.0945325 -1.082313 -0.9916206
000200 d3 15 80 bf e0 95 84 bf 92 79 83 bf 09 9c 83 bf
       -1.000666 -1.0358238 -1.0271475 -1.0281993
000210 71 02 8d bf 77 80 8f bf 81 00 89 bf 20 7f 77 bf
       -1.101637 -1.1211079 -1.0703279 -0.9667835
000220 63 9a 48 bf f0 15 48 bf 56 f5 36 bf a8 36 63 bf
       -0.78360575 -0.78158474 -0.714681 -0.88755274
000230 35 c9 87 bf 0d 26 8f bf f2 cc 9f bf 86 d2 a1 bf
       -1.0608279 -1.1183487 -1.2484419 -1.2642372
000240 4f fc af bf 26 2d a6 bf 10 c8 a2 bf 3e 5b a1 bf
       -1.3748873 -1.2982528 -1.2717304 -1.260597
000250 82 9e 8b bf 28 52 7b bf 18 9a 4b bf d0 31 4c bf
       -1.0907748 -0.98172235 -0.79532003 -0.7976351
000260 cc 9c 62 bf f5 c3 62 bf 47 32 7f bf 68 1c 8f bf
       -0.88520503 -0.88580257 -0.9968609 -1.1180544
000270 13 ab a2 bf dc 1e a8 bf 41 2e ae bf 3b 26 bf bf
       -1.2708458 -1.3134418 -1.3607866 -1.4933542
000280 8d 25 c3 bf 39 1b bf bf 05 2f b4 bf de d4 a6 bf
       -1.5245835 -1.4930183 -1.4076849 -1.3033712
000290 99 51 a3 bf 12 53 a0 bf f8 3b a2 bf f7 4a ac bf
       -1.2759277 -1.2525351 -1.2674551 -1.3460377
0002a0 9e 6b b9 bf 0a fc cb bf 4e 35 d9 bf c6 72 dc bf
       -1.4485967 -1.5936291 -1.6969392 -1.7222526
0002b0 ec ad df bf d4 8f dd bf 57 18 d2 bf 4e 4c c9 bf
       -1.7474952 -1.7309518 -1.6413678 -1.5726411
0002c0 7a 92 c0 bf 31 a8 b8 bf e5 c6 b2 bf d9 a6 aa bf
       -1.5044701 -1.4426328 -1.3966948 -1.3332168
0002d0 63 2c a3 bf e1 32 a2 bf 95 6b a0 bf 77 f7 95 bf
       -1.2747921 -1.2671777 -1.2532831 -1.1716145
0002e0 a6 c9 90 bf 09 51 8b bf e8 cb 89 bf 87 b3 90 bf
       -1.1311538 -1.0884105 -1.0765352 -1.1304787
0002f0 bb 80 84 bf e0 01 85 bf 4c 18 86 bf ec e4 80 bf
       -1.0351785 -1.0391197 -1.0476165 -1.0069861
000300 67 e6 74 bf 9b 0b 6a bf ca ce 72 bf f6 5e 5f bf
       -0.95664066 -0.9142396 -0.94846785 -0.87254274
000310 14 77 61 bf 63 43 63 bf fb 27 69 bf 20 d1 6e bf
       -0.88072324 -0.887747 -0.9107663 -0.9328785
000320 ab 31 64 bf 00 d1 7c bf bc 8e 78 bf 7e ff 7b bf
       -0.8913829 -0.9875641 -0.97092795 -0.98436725
000330 c1 5c 81 bf fb 75 7f bf 2b 91 71 bf 43 9b 6b bf
       -1.0106431 -0.997894 -0.94362134 -0.92033786
000340 d6 83 69 bf 80 f3 5d bf 00 d2 57 bf 95 c4 58 bf
       -0.9121679 -0.86699677 -0.8430481 -0.8467496
000350 59 13 56 bf 7d 65 60 bf 2b c9 58 bf 23 e2 50 bf
       -0.8362327 -0.8765486 -0.8468196 -0.8159506
000360 6a 68 48 bf b3 0b 4f bf 6f cc 3f bf 90 c3 28 bf
       -0.78284323 -0.80877227 -0.74921316 -0.65923405
000370 5f 21 32 bf 65 d1 32 bf 2c 68 28 bf 83 63 1f bf
       -0.6958217 -0.6985076 -0.65783954 -0.6226122
000380 05 32 18 bf d4 0e 1d bf 9f d7 2d bf b0 3b 36 bf
       -0.59451324 -0.6135075 -0.67907137 -0.71184826
000390 e5 31 39 bf 25 bd 4f bf 07 31 5e bf a5 25 54 bf
       -0.7234176 -0.81147987 -0.8679356 -0.8286994
0003a0 29 32 53 bf cb 8a 45 bf 05 0e 46 bf df 8f 5f bf
       -0.82498413 -0.77164906 -0.7736514 -0.87328905
0003b0 a6 17 5a bf ed d4 5e bf d1 98 60 bf e4 26 71 bf
       -0.85192335 -0.8704365 -0.8773318 -0.9419997
0003c0 18 d6 79 bf b1 9c 86 bf 2f e8 84 bf 4b d8 8d bf
       -0.97592306 -1.0516568 -1.0383357 -1.1081632
0003d0 c8 4a 9a bf a6 62 a0 bf b6 cd 9d bf 1d d0 9b bf
       -1.2054071 -1.2530105 -1.2328403 -1.2172886
0003e0 c3 02 9d bf d0 08 9f bf 67 4e 9a bf 0f 3f a0 bf
       -1.2266468 -1.2424564 -1.2055176 -1.2519244
0003f0 0c 10 a2 bf e3 77 a5 bf 4d 82 a6 bf 0e 0f a1 bf
       -1.2661147 -1.2927212 -1.3008515 -1.2582719

linear_dec_output/W f4 [513, 128]
000000 c2 46 66 bf b9 8c d2 bd 16 cc eb be 28 56 31 bd
       -0.8995172 -0.10280747 -0.46054143 -0.043295056
000010 a9 78 93 be 0c db 1b 3f a4 f7 82 bf f9 d2 fa 3d
       -0.28802994 0.60881114 -1.0231824 0.12247271
000020 82 1e 05 3e c0 a6 d2 bd 22 b5 8d 3f 75 6f b6 be
       0.12999919 -0.10285711 1.1070902 -0.3563191
000030 0a 07 b7 bd 6d 4c d6 3e c0 4e 37 3c 9f 0b 92 3e
       -0.089368895 0.41855183 0.011188209 0.2852449
000040 02 2d 8f 3e 03 4d 26 bf e5 96 2f bf 3e 66 d5 3e
       0.27964026 -0.6496126 -0.6858962 0.41679567
000050 94 ce 04 3e 86 8c 94 bd fe ad 3b 3f d7 81 45 3f
       0.12969428 -0.07253365 0.73312366 0.77151245
000060 b6 b5 08 bf 7f 5a fb 3e 70 b9 eb 3e c1 91 bf 3e
       -0.5340227 0.4909248 0.46039915 0.3741589
000070 0e b1 1d c0 f0 21 87 3e 3a 45 f8 bc f1 ef 24 3f
       -2.4639316 0.2639308 -0.030306447 0.6442862
000080 d8 96 fa be 30 a3 03 3f 68 d2 f1 bd 6b f4 22 be
       -0.4894321 0.5142088 -0.1180771 -0.1591355
000090 ad b1 be 3f 47 25 89 3e 31 f5 96 3f 56 b6 0a 3e
       1.4897972 0.26786253 1.1793576 0.13546118
0000a0 48 19 1f c0 f7 0d 1d 3f 71 11 84 be 61 91 0a be
       -2.485918 0.61349434 -0.25794557 -0.1353202
0000b0 dc 1e 4a bf 2e 5a 00 bf 95 49 d7 bd b3 be 21 3e
       -0.7895334 -0.50137603 -0.105120815 0.15795402
0000c0 de 3b 74 be 89 90 5d be f5 c9 55 3f f6 82 83 be
       -0.23850963 -0.21637167 0.83511287 -0.25685853
0000d0 03 ff c1 3e 6a b9 f8 bd 6c a7 87 3e 9f ac 7b 3f
       0.3788987 -0.1214474 0.2649492 0.98310274
0000e0 0c 7b 81 3d 6d b5 43 bf 43 2f db 3f d0 da e3 be
       0.063222975 -0.7644871 1.7123798 -0.44502878
0000f0 91 ad 88 3f c4 35 02 bf 3d bd 3e be 75 18 ca bd
       1.0677968 -0.5086329 -0.18626876 -0.09867946
000100 bd 92 67 3f d7 33 5d 3e ac 08 d9 3e 8d 14 5e bf
       0.9045828 0.21601807 0.4238943 -0.8675011
000110 89 7d 6e bf 7a ec 8a 3f e6 c5 63 bf 38 e9 25 3f
       -0.931603 1.0853417 -0.88973844 0.6480899
000120 7f 62 de bb 7e b2 e7 be 5b 4f a1 be 1b 8c 19 bf
       -0.006786644 -0.45253366 -0.31505856 -0.5997941
000130 75 91 19 3d b4 6e 90 be a0 c9 49 3f 0d a1 c0 3c
       0.037492234 -0.2820946 0.7882328 0.023514295
000140 55 96 28 3f 90 ce 77 3f 2d f0 82 bd 76 ab 02 3e
       0.6585439 0.96799564 -0.06393466 0.1276072
000150 48 11 34 3e 73 6f ad 3e 28 b4 04 bd f5 62 e8 be
       0.17584717 0.33874092 -0.032398373 -0.45387998
000160 17 bd 6d be dd 79 10 bb 42 d3 0d bd 4d ee 31 3e
       -0.23216663 -0.0022045292 -0.0346253 0.17376061
000170 72 06 8a 3e bd e2 2a 3e 28 15 77 bf ae 88 c6 bf
       0.26958042 0.16688056 -0.96516657 -1.5510461
000180 35 c3 1f be eb bf 21 3f 7a f5 12 bf 5e bc 7f 3f
       -0.1560181 0.6318347 -0.5740582 0.998968
000190 ee 05 37 3d 2d ad 29 3e 12 bf d6 3f 35 33 04 bf
       0.04468339 0.16569968 1.677706 -0.51640636
0001a0 38 a8 4d c0 b6 d2 ae 3e fc 6f af 3f 2f ff 93 3e
       -3.2133923 0.34145135 1.370605 0.28905627
0001b0 9d e5 da be 14 81 06 3d c8 f6 97 3e 6b 71 16 bf
       -0.42753306 0.032837942 0.29680467 -0.5876681
0001c0 72 f6 13 bd d1 6f ef bd be b1 f6 3c a5 5c 93 3e
       -0.0361237 -0.11691249 0.030114051 0.2878162
0001d0 b6 72 02 bf e9 4e 8b be dd 25 e7 be eb 8e c3 3f
       -0.50956285 -0.2720864 -0.45146075 1.527799
0001e0 81 9a c6 3e f1 0e 43 be 88 66 a9 bf 8a 33 58 be
       0.38789752 -0.19048668 -1.3234415 -0.2111341
0001f0 ba 3e 4c be e6 28 a4 3d a1 a3 94 bf a9 6f ce bf
       -0.19945803 0.08015613 -1.1612436 -1.6127826
000200 2e 05 67 bf f9 83 12 3d 69 06 e2 be 67 64 dd bd
       -0.9024228 0.03577039 -0.44145516 -0.10810166
000210 7d 66 19 3e c9 9f 0a 3f 76 e1 3c bf 5c 52 f7 3d
       0.14980502 0.5415006 -0.73781526 0.12076256
000220 8a 4c ba 3d f4 e4 99 bd 61 ff 95 3f 62 51 dd be
       0.0909663 -0.075143725 1.171856 -0.43226153
000230 c4 e8 02 be 74 99 9f 3e 08 0f 34 3e 2c ba 9c 3e
       -0.12784106 0.31171763 0.17583859 0.30610788
000240 1d b8 1c 3d 6f 50 4b bf d1 fe e3 be 7a 6b a1 3e
       0.03826152 -0.79419607 -0.44530347 0.3152731
000250 02 3f a9 3d 0e 5a bb bd 07 89 b6 3e 3a 98 70 3f
       0.08263971 -0.09148036 0.3565142 0.9398228
000260 82 e7 14 bf f4 8e 63 3f 26 9e 2a 3e ed 5c fd 3e
       -0.5816575 0.88890004 0.16661891 0.4948496
000270 9c 2d 21 c0 a8 ff 47 3e 63 bc f3 3c e8 29 3e 3f
       -2.5184088 0.19531119 0.029752916 0.74282694
000280 be 8e 11 bf fb fc fb 3e c7 ad 62 be 0f 8e 48 be
       -0.5685843 0.49216446 -0.22136603 -0.19585441
000290 9f d4 d4 3f 10 80 ef 3e e1 ad b6 3f 15 f0 d7 3e
       1.6627387 0.4677739 1.4271814 0.42175356
0002a0 78 06 07 c0 c1 01 0f 3f 04 d4 5d be c4 4d 1b be
       -2.1097698 0.5586205 -0.21662909 -0.15166384
0002b0 32 20 52 bf eb f0 d4 be 66 56 2f 3e ec 0a dd 3d
       -0.82080376 -0.41590056 0.17122802 0.10793099
0002c0 11 97 bf bd 0b 03 ad be a8 ae 23 3f 3f df 91 be
       -0.093549855 -0.33791384 0.6393838 -0.28490636
0002d0 c3 25 90 3e 76 28 00 be a5 93 be 3d dc 95 6b 3f
       0.2815381 -0.12515435 0.09305505 0.9202554
0002e0 6a 07 27 3c ef 3e 0c bf 9d 42 0e 40 71 61 e3 be
       0.010194639 -0.5478353 2.2228158 -0.4441028
0002f0 84 52 88 3f 13 f6 e2 be c9 06 43 be 9a ac e7 3c
       1.0650182 -0.44328365 -0.19045557 0.028280545
000300 9d a5 65 3f 14 da c2 bd 59 44 9b 3e 47 01 9b bf
       0.8970583 -0.09514251 0.30325583 -1.2109765
000310 55 32 39 bf b9 22 8f 3f a8 8a 8a bf 6d 60 18 3f
       -0.72342426 1.1182472 -1.0823565 0.59522134
000320 99 68 0f be 58 35 e6 be c2 92 94 be e7 58 16 bf
       -0.14004745 -0.44962573 -0.29018217 -0.58729404
000330 e3 6a 76 3c 0e 86 24 be c0 7d 13 3f 6e b9 b6 3c
       0.015040132 -0.16066763 0.57613754 0.022305217
000340 e0 a6 33 3f 3d df 45 3f 81 4e b5 3d 3f 0d 0f be
       0.70176506 0.7729376 0.08852864 -0.13969897
000350 23 8a 48 3d 3d 5d 3b 3e 0f a7 d7 bc 4b bd ef be
       0.048959862 0.18297286 -0.026324777 -0.46824107
000360 2d b9 30 be 76 0e 0b 3c d1 fb 60 bd a5 08 8f 3e
       -0.17258139 0.0084873345 -0.05492765 0.27936283
000370 c3 fb 63 3e d1 c8 10 3e 9b 13 4f bf 82 16 c1 bf
       0.22264008 0.14139105 -0.8088929 -1.5084994
000380 dc 3e 46 be c4 24 2f 3f 68 ec 35 bf d7 7d 72 3f
       -0.19359916 0.68415475 -0.7106385 0.94723266
000390 6b 1a 2b 3d b7 20 ac 3d 2c c6 c2 3f 4a 71 3b bf
       0.04177324 0.08404677 1.5216727 -0.7321974
0003a0 35 88 3e c0 88 fd e1 3e 28 ad c2 3f 48 bc 57 3e
       -2.9770634 0.44138741 1.5209093 0.21067917
0003b0 bc 5a f6 be 08 90 81 3d 34 ad 05 3e 5a ca 01 bf
       -0.481161 0.063263 0.13054353 -0.5069939
0003c0 e5 9c 16 bd e8 c8 f0 bd 7e b6 a5 3e fd af c9 3e
       -0.03677072 -0.1175707 0.32365793 0.3939208
0003d0 c4 9c 5a 3d d1 a7 9f 3e 77 8b 16 bf e1 c2 e2 3f
       0.05337216 0.3118272 -0.58806556 1.7715722
0003e0 db 0b 3f 3e b5 16 97 be d8 54 b8 bf 97 02 4d be
       0.18656866 -0.29509512 -1.4400892 -0.20020519
0003f0 6d 3b 0e be ad 11 7c 3d 57 03 45 bf 3e 55 bc bf
       -0.13889857 0.061540294 -0.7695822 -1.4713514

linear_enc_logVar/b f4 [16]
000000 03 37 79 bf 09 81 45 bf ec 20 85 bf 95 d0 4e bf
       -0.97349566 -0.7715002 -1.0400672 -0.8078702
000010 dc 1c 2f bf d3 96 58 bf 01 70 c6 be 90 b0 ec bf
       -0.6840341 -0.8460514 -0.38757327 -1.8491383
000020 66 d0 c7 bf f6 99 82 bf 8f 2e 9d bf 1a ff d7 bf
       -1.5610473 -1.0203235 -1.2279834 -1.6874726
000030 8d 8e 05 bf 23 93 91 bf 64 f5 c9 bf f8 1f 74 bf
       -0.5217064 -1.1373028 -1.5778012 -0.9536128

linear_enc_logVar/W f4 [16, 128]
000000 cd af 86 3e aa fc 77 be 40 06 48 be db 2f 62 bf
       0.26306 -0.24217477 -0.19533634 -0.8835427
000010 c5 0e 80 3f c2 29 91 be 6d 69 a3 bf 37 39 86 3f
       1.0004507 -0.2835217 -1.2766548 1.048621
000020 b4 e8 3f 3d 8b a1 f4 bd be da a0 be 0a 03 66 3e
       0.046852782 -0.119448744 -0.31416887 0.22462097
000030 88 d4 99 be 1f 7f bd 3e 7d c8 17 3f 51 d7 db 3c
       -0.3004496 0.37011048 0.59290296 0.02683607
000040 8f 7e c0 be 18 09 bb be d0 7c c5 be b4 35 06 c0
       -0.37596557 -0.36530375 -0.38571787 -2.0970278
000050 d1 6c 4a bf 6f 76 e9 be c2 a7 27 3e 87 0d c9 3e
       -0.7907229 -0.4559817 0.16372588 0.39268133
000060 61 ec e1 3b 9a 99 a5 3e 61 fb ca 39 1a 31 76 be
       0.0068946336 0.3234375 0.00038715734 -0.24042168
000070 75 1e 4b 3f 67 ca a2 bd f0 0e eb bd 6b fb 51 bd
       0.7934335 -0.079487614 -0.114774585 -0.05126516
000080 3b b2 32 bf 4e 61 42 3f 90 3c c4 3e 21 6a b7 3e
       -0.6980321 0.75929725 0.38327456 0.35823157
000090 c7 71 b1 be a3 ed 11 bf 26 c3 57 be 1b 0e 94 3d
       -0.34657118 -0.5700323 -0.21070537 0.07229253
0000a0 58 d2 da be a3 63 4c 3e f5 8c a6 bd 0b fe 1f 3f
       -0.42738605 0.19959883 -0.08132354 0.62497014
0000b0 55 f6 05 bf fa c4 b5 bc 22 14 35 3e d0 76 85 3d
       -0.52329 -0.022188652 0.17683461 0.06516802
0000c0 54 17 f1 bd a4 ed 2c bf 8e 25 8b be a6 c5 69 3e
       -0.117720276 -0.6755011 -0.2717709 0.22829303
0000d0 c8 50 ad 3c fc 84 1d bf c1 36 95 be a5 17 7b 3e
       0.021156684 -0.61531043 -0.29143336 0.24520738
0000e0 4d 3c 82 bd 4c be ed 3e 5d f7 49 3e a6 49 56 3f
       -0.06359158 0.46434247 0.19723268 0.8370613
0000f0 69 eb 00 3f 81 ac 11 bf c2 bb 66 3f 2b c0 0f bf
       0.5035921 -0.56903845 0.90130246 -0.561526
000100 0c fe c8 3e 5d 1f 0a 3d 15 d7 c3 be 64 66 90 3e
       0.39256322 0.033721317 -0.38250032 0.28203118
000110 90 40 14 bd 91 de 9f be 5a 91 95 be 30 44 f3 3e
       -0.036194384 -0.31224492 -0.29212457 0.4751296
000120 f5 27 ad 3c 30 95 dd 3e 27 23 b7 3e b2 ba 23 bf
       0.021137217 0.43277884 0.35769007 -0.6395675
000130 f7 41 14 3f b6 d2 54 3e 49 c0 ad 3e 37 84 d6 be
       0.57913154 0.20783505 0.33935764 -0.41897747
000140 9a 48 99 be 0c 15 bb 3e 43 7d 12 bf af 4f 07 3e
       -0.29938203 0.36539495 -0.57222384 0.1321399
000150 ee af 67 3f 68 ca 21 bf 7d 21 e0 be 2b 62 2c be
       0.9050282 -0.6319947 -0.4377555 -0.16834323
000160 91 e8 ee 3d ab 9f 5d be 6d 7f 9a 3e c2 96 78 be
       0.11665452 -0.2164294 0.30175343 -0.2427626
000170 58 de 4c 3d 4e d2 14 3f 52 80 56 be 8d 14 2b 3e
       0.05001673 0.581334 -0.20947388 0.16707058
000180 fe df d8 3e 14 13 d3 3d b2 ed 97 3d 6e 26 50 3f
       0.42358392 0.10306373 0.07418384 0.8130864
000190 2b 13 5d 3f d8 b3 fb 3e 8d 00 4d 3e d3 d2 17 bf
       0.86357373 0.49160647 0.20019741 -0.5930607
0001a0 64 65 d6 3e a3 9a 8d 3e 56 90 25 3d 29 9b f8 3d
       0.4187423 0.2765704 0.040420853 0.121389695
0001b0 79 8d 01 3f ec 51 94 bc 03 03 06 bf fb af 8d 3d
       0.50606495 -0.01810547 -0.52348346 0.06918331
0001c0 a5 35 96 3e 35 8c 12 3f 72 9c 8e 3c 20 6a 39 3d
       0.29337803 0.5724519 0.017408583 0.045267224
0001d0 55 cf c3 be 1d 54 fa bd 5e b3 c7 3c 6b e3 2e bf
       -0.3824412 -0.122230746 0.024377521 -0.6831576
0001e0 66 d8 ec be fd 03 21 bf e2 e6 0d 3e 43 45 db 3e
       -0.4625885 -0.6289671 0.13857606 0.4282628
0001f0 be 74 5c 3f 66 7b aa ba 3f 17 50 3e 7b e4 27 c0
       0.86115634 -0.0013006746 0.20321368 -2.6233203
000200 5d 37 c0 3e 9c a1 05 be 27 97 84 be dd 00 5f 3e
       0.3754224 -0.1304993 -0.2589657 0.21777673
000210 60 75 c9 3e 0e 31 9a be 38 3d f8 be aa f5 54 3f
       0.39347363 -0.3011555 -0.48484206 0.83187354
000220 05 ef 68 be b4 dc c1 bd 88 1c fb 3d 6e a0 a7 3e
       -0.22747429 -0.09465924 0.12261301 0.32739586
000230 a3 6f 33 be 25 6d d0 3e 31 67 c8 bd 4f 42 23 bd
       -0.17523055 0.4070827 -0.09785307 -0.03985816
000240 22 97 8b be 19 5f 00 3e a9 8b 7e be ec 88 20 bf
       -0.27263743 0.12536277 -0.24857964 -0.62708926
000250 87 63 2f bf 16 10 ac be 04 fc cf bc 13 aa 19 be
       -0.6851124 -0.33606023 -0.025388725 -0.15006284
000260 c1 f7 1a 3e 26 8a 8a 3e fe c1 88 bf 97 8a d8 be
       0.15133573 0.27058524 -1.0684202 -0.42293236
000270 5f 31 cc be 3a ff c3 3d e1 ce 04 be 3c 3f 92 be
       -0.39881417 0.09570165 -0.12969543 -0.2856387
000280 93 b5 f6 3d 6d 12 93 bc 26 48 2d 3e 7f 5b fe 3e
       0.12046351 -0.017953122 0.16922054 0.4967918
000290 ed f5 69 be f0 91 49 bf 92 fb 9b 3c 89 b8 61 3d
       -0.2284772 -0.7873831 0.019040857 0.055107627
0002a0 52 a8 40 bf 8b b8 b8 3e 99 a6 08 3f 0e 2d 5b 3f
       -0.75256836 0.36078295 0.5337921 0.85615623
0002b0 3b d1 1a 3e 28 8a f8 3e ae ad a3 3e 90 79 13 3e
       0.15118878 0.48542905 0.31968445 0.14401841
0002c0 82 e8 cf 3b 51 33 1e bf 44 e1 ac be 76 60 0c 3f
       0.0063448558 -0.6179705 -0.33765614 0.5483469
0002d0 61 18 fc bc 01 e5 9d be 43 f7 9e 3e 19 20 fc 3d
       -0.030773344 -0.3083878 0.3104802 0.1231081
0002e0 49 18 e6 3e a9 af 12 be f3 07 9f 3d 91 b3 a3 3f
       0.44940403 -0.14324822 0.07765188 1.2789174
0002f0 aa 31 63 be 99 0b 42 3a b5 68 50 3e 89 2e 46 be
       -0.22186914 0.0007402241 0.20352443 -0.19353689
000300 15 6e e2 3e f4 2d 04 be eb df a1 be a1 48 a0 be
       0.4422461 -0.12908155 -0.31616148 -0.3130541
000310 39 00 e1 bc 35 ab ae 3e 28 95 0b be 22 38 29 3e
       -0.027465926 0.34114996 -0.13631117 0.16525319
000320 9f be 9a 3e 22 a6 07 bf 64 d1 a5 3d 1c 68 45 bf
       0.30223557 -0.52987874 0.08096579 -0.77111983
000330 16 f5 fc 3e 53 92 9f 3e aa 6d 51 3e 20 94 85 be
       0.49405736 0.31166324 0.2045199 -0.26089573
000340 df 30 27 be 45 f2 59 3f b5 14 11 bd 4b 75 84 3d
       -0.16327237 0.851353 -0.03542014 0.06467684
000350 f7 c8 79 3e bb c6 72 be d1 b5 3b be f4 72 b2 be
       0.24393068 -0.23708622 -0.18331076 -0.34853327
000360 c2 71 e4 be 4b b3 11 bf f7 68 c2 3e 3f 98 8d bd
       -0.4461804 -0.56914204 0.37970707 -0.06913804
000370 3c b6 a7 3d 4f 1d 30 bd d4 5d 89 3d 38 45 b2 3e
       0.08189055 -0.0429967 0.067073494 0.34818435
000380 8d 36 7f 3e 1e e2 10 3b 98 2c ec 3e 69 27 65 3f
       0.24923153 0.0022107433 0.46127772 0.8951326
000390 12 35 59 3f 20 8d ab 3e 8e 07 3e 3e 72 ca 67 bc
       0.84846604 0.33506107 0.1855757 -0.014147388
0003a0 c9 a6 6c 3e 58 46 b3 3e f2 4f 0f 3e 61 dd c0 3e
       0.23110498 0.35014606 0.1399534 0.376689
0003b0 b8 fd 84 3e d3 41 f6 be 69 ee 8b be 0a 3b 53 3e
       0.25974822 -0.48097095 -0.2733033 0.2062799
0003c0 cf 2c ca bd 94 50 02 3f b3 c8 df 3d 64 0a 00 3d
       -0.09871828 0.509042 0.10926952 0.03125991
0003d0 17 d9 bd be f6 1f 8d be 22 36 c8 3e 3d e5 f4 be
       -0.3707969 -0.27563447 0.391038 -0.47831145
0003e0 7f df d5 be 52 be 8e be 8a 75 2d bd 1a e1 d9 3d
       -0.41772076 -0.27879578 -0.042348422 0.10638638
0003f0 68 a2 05 bd 79 08 fe bd 60 e5 d8 3d ba 8c c2 bf
       -0.032625586 -0.1240396 0.10590625 -1.5199196

linear_dec/b f4 [128]
000000 de 90 0e c0 4c 54 17 40 a9 61 1d c0 d0 11 6e bf
       -2.227592 2.36452 -2.4590857 -0.9299593
000010 0a 9b 89 3e ab e6 d9 3f ee 71 00 40 2e 76 30 c0
       0.26876098 1.7023519 2.0069537 -2.757213
000020 fc d0 d3 3f e4 54 78 bf 39 6b a6 bf 54 ff 65 3f
       1.6548152 -0.9700453 -1.3001472 0.89842725
000030 15 bc a6 bf 26 5b 1d 40 c0 f3 6e 40 d0 93 53 bf
       -1.3026148 2.4586883 3.7336273 -0.8264742
000040 06 9b b9 bf 52 9d 19 bf 0c 0c 9f 3e 14 25 0a 40
       -1.4500434 -0.60005677 0.3106388 2.158513
000050 d2 5e c1 bc 7a f6 aa bf ad d0 e7 3f d5 c1 76 3e
       -0.023604784 -1.3356469 1.8110558 0.24097379
000060 f0 36 4f 3f 3b 9b d6 bf 56 a1 cb 3f 1a 52 0c 3f
       0.809432 -1.6766123 1.5908611 0.5481278
000070 63 2a 09 c0 5f fe a1 bf 0c ee da 3f 77 8f 6d be
       -2.143212 -1.2655753 1.7103896 -0.23199259
000080 d8 99 5d 3f a7 ea a9 3f 69 34 4a 3f d3 22 a0 bf
       0.8656287 1.3274735 0.7898622 -1.2510628
000090 de eb d2 3f 86 4b f2 3e a2 45 cf 3f 51 69 ca bf
       1.6478231 0.47323245 1.6193125 -1.581339
0000a0 ef 67 09 c0 0e 26 49 3f 12 2e 18 c0 41 9b aa bf
       -2.1469686 0.7857369 -2.377812 -1.332863
0000b0 d8 78 a5 bf de e5 03 3f 11 82 cd bf d0 d9 21 bf
       -1.2927504 0.51522624 -1.6055318 -0.6322298
0000c0 dd 91 be bf ba c3 c3 3e 75 6f b8 3f 28 64 d6 bf
       -1.4888264 0.38235265 1.4409014 -1.6749315
0000d0 22 b1 d2 3f 43 1e d4 3e 2c 32 01 40 e9 f1 cb 3e
       1.6460307 0.41429338 2.0186872 0.39833
0000e0 9e b1 8f 3f 15 fd 8f bf 3e ac f7 3f 6a 3a 84 bf
       1.122608 -1.124911 1.9349439 -1.0330327
0000f0 0b a7 bf bf b4 67 04 3f 8a 91 b6 3f 72 eb 92 3e
       -1.4972852 0.5172074 1.4263165 0.28695256
000100 91 8b 11 40 ef 33 98 3f e9 6d 56 bf 11 77 b0 3f
       2.2741435 1.1890849 -0.8376146 1.3786336
000110 6c aa e9 bf a1 b2 70 bf 76 da f1 bf 1a a4 9e 3f
       -1.8255134 -0.94022566 -1.8894794 1.239383
000120 1c 0f 59 3f f8 70 0a 3f 86 89 9a bf df b5 5c c0
       0.8478868 0.54078627 -1.2073219 -3.4486005
000130 db 35 5e 3f b4 a1 c2 3f e4 d6 a7 bd 59 da 16 c0
       0.86800927 1.5205598 -0.08195284 -2.357077
000140 0c 3d c2 bf 61 9f ef be dd 2f c9 bf 98 ef a4 3f
       -1.517488 -0.46801284 -1.5717732 1.2885618
000150 54 f6 c6 3f 69 3a ec 3f a3 92 c9 3f 37 39 93 3f
       1.5543923 1.8455325 1.5747875 1.1501836
000160 c8 48 a4 bf 5e e8 a6 bf 23 fb 1c 3f 82 63 89 3e
       -1.2834711 -1.3039663 0.61320704 0.2683373
000170 c3 5f ac bd 76 28 b8 bf 7d 4e ae bf 5c fa ff bf
       -0.084167026 -1.4387348 -1.3617703 -1.9998279
000180 58 2c 8a 3f 0e 19 d4 3f db 26 ee bf ff c8 59 c0
       1.0794783 1.6570146 -1.8605608 -3.4028928
000190 0d 86 53 c0 11 b6 cc 3f af f9 0f 3f da 34 0c 40
       -3.3050568 1.5993062 0.5624036 2.1907258
0001a0 6b 42 3c bf 77 da 0b 40 50 f7 fc 3f e7 70 76 bf
       -0.73538846 2.185209 1.9762974 -0.96266025
0001b0 d1 96 e1 bf 32 59 5b 3e 3b 05 06 c0 01 61 c4 bf
       -1.762415 0.21420744 -2.0940692 -1.5342103
0001c0 88 ba ae 3f 40 f6 27 40 3b ee d4 3f a9 83 04 c0
       1.3650675 2.624405 1.6635202 -2.070536
0001d0 70 22 05 c0 33 07 e8 bf 92 fa 53 3f 63 0c 0d 40
       -2.080227 -1.8127197 0.82804215 2.203881
0001e0 d5 72 99 bf eb 64 06 40 24 ce be bf 93 40 c5 3e
       -1.1988169 2.0999095 -1.4906659 0.3852583
0001f0 70 26 79 c0 fd 41 b0 3e 38 bc 32 40 59 26 d0 bf
       -3.892971 0.34425345 2.792738 -1.6261703
